…
  - Steps per epoch: ~63 (2000 images / 32 batch size)
  - Validation steps: ~32 (1000 images / 32 batch size)
  - Training time: ~5-10 minutes on CPU per epoch

Cell 8: Plot Training History
  - Generates two plots:
    * Training vs. Validation Accuracy
    * Training vs. Validation Loss
  - Visualizes model performance and potential overfitting


MODEL ARCHITECTURE DETAILS
--------------------------------------------------------------------------------
Layer (type)                 Output Shape              Param #
================================================================================
conv2d_1 (Conv2D)           (None, 148, 148, 32)      896
max_pooling2d_1             (None, 74, 74, 32)        0
conv2d_2 (Conv2D)           (None, 72, 72, 64)        18,496
max_pooling2d_2             (None, 36, 36, 64)        0
conv2d_3 (Conv2D)           (None, 34, 34, 128)       73,856
max_pooling2d_3             (None, 17, 17, 128)       0
flatten (Flatten)           (None, 36992)             0
dense_1 (Dense)             (None, 512)               18,940,416
dense_2 (Dense)             (None, 1)                 513
================================================================================
Total params: 19,034,177
Trainable params: 19,034,177
Non-trainable params: 0


KEY CONCEPTS IMPLEMENTED
--------------------------------------------------------------------------------
1. Data Augmentation:
   - Prevents overfitting by artificially increasing dataset diversity
   - Applies random transformations only to training data
…
